models/neural_policy.pth (torch, 6886 bytes, 5 tensors)

network.0.weight f4 [32, 14]
0	0x3e324f03	0.17412953
1	0x3d240a35	0.040048797
2	0xbe0af79f	-0.13571022
3	0xbdd7c411	-0.105354436
4	0xbf4bf5bb	-0.7967183
5	0xbf9e4b87	-1.2366799
6	0x3e251070	0.16119552
7	0x3e405ef4	0.18786222
8	0x3dc78950	0.09742987
9	0x3ba9754e	0.0051714545
10	0xbd872822	-0.065994516
11	0x3dc0b821	0.0941012
12	0xbfab86c7	-1.3400506
13	0x3e9b7f6f	0.30370662
14	0x3d47620e	0.048677497
15	0x3d831491	0.06400407
16	0x3e362b12	0.17789868
17	0x3ec862cb	0.39137873
18	0xbe682f44	-0.2267428
19	0x3e903181	0.28162768
20	0xbd6ccbed	-0.057811666
21	0xbe93c5c4	-0.2886182
22	0xbdd4600f	-0.10369884
23	0xbe050933	-0.1299179
24	0xbe2c1f03	-0.16808705
25	0xbe845848	-0.25848603
26	0x3e8ad70b	0.2711719
27	0x3c953580	0.018213987
28	0x3ddab0d9	0.10678262
29	0x3d4aa570	0.04947418
30	0x3e21f2d5	0.1581529
31	0xbcec6663	-0.028857416
32	0xbf46dd77	-0.7768168
33	0xbf6309af	-0.8868665
34	0xbea79214	-0.32728636
35	0xbe292d8c	-0.16521281
36	0x3e50632e	0.20350334
37	0x3c9bda87	0.0190251
38	0x3e120d78	0.1426295
39	0x3f1d7985	0.6151355
40	0xbfc8fea2	-1.5702708
41	0x3e9d0d04	0.30673993
42	0xbe0ed86c	-0.13949746
43	0xbde1eff2	-0.11032094
44	0xbec0e212	-0.37672478
45	0xbb917a69	-0.0044396413
46	0x3e2cdede	0.16881892
47	0xbeec5a3f	-0.46162602
48	0xbed55b68	-0.416713
49	0xbec4e19f	-0.38453385
50	0xbed4f2d6	-0.4159152
51	0x3dede078	0.1161508
52	0x3d0bb8ff	0.034111973
53	0x3bf79839	0.007555988
54	0x3e4797c9	0.19491495
55	0x3c161d5e	0.009162275
56	0xbdbae76e	-0.09126173
57	0xbe3d3cac	-0.18480176
58	0xbea36728	-0.3191464
59	0xbcdfbf5a	-0.027312923
60	0x3dbdd1e4	0.09268549
61	0x3d4b9510	0.049702704
62	0xbe9eeae3	-0.3103858
63	0xbe27c2eb	-0.16382949
64	0xbf0beb34	-0.54655766
65	0xbe86e2e5	-0.26344982
66	0x3bac0d18	0.0052505843
67	0x39ac1f2a	0.00032829616
68	0x3e86e0f9	0.26343516
69	0x3c0de1f5	0.008659829
70	0xbc4b5047	-0.012409276
71	0x3dd637e9	0.10459883
72	0xbe4bab54	-0.19889575
73	0xbb16c7ac	-0.0023007197
74	0x3d6236be	0.055227987
75	0x3d75ce1d	0.060011018
76	0x3ddfcf79	0.10928244
77	0xbc41657b	-0.01180398
78	0xbc7df566	-0.015500402
79	0xbdaeca51	-0.085346825
80	0xbf0d0b2a	-0.5509516
81	0x3f0dbc2c	0.5536525
82	0x3da966a2	0.08271529
83	0xbd6dd6f1	-0.058066312
84	0xbd86546a	-0.065590695
85	0x3d81b7ff	0.063339226
86	0x3e9fbe89	0.31200054
87	0x3e3ea050	0.18615842
88	0xbe08e69e	-0.13369223
89	0xbe824248	-0.25441194
90	0x3e026e3d	0.12737365
91	0x3da71f3f	0.081602566
92	0xbeaa2511	-0.33231404
93	0x3e26cf2f	0.16289972
94	0x3de14c21	0.110008486
95	0xba935c56	-0.0011242728
96	0xbdec15e3	-0.11527612
97	0xbec78755	-0.38970438
98	0x3f00fc2c	0.50384784
99	0xbc0e2ea5	-0.008678113
100	0xbd356524	-0.04428591
101	0xbd865042	-0.06558277
102	0x3eeaaf46	0.45836848
103	0x3eab3ad2	0.33443314
104	0x3e98dea4	0.2985736
105	0x3e86048c	0.26175344
106	0x3d164d65	0.036694903
107	0x3dc0cc9a	0.09414025
108	0xbc684827	-0.014177359
109	0x3b5d8466	0.003380084
110	0x3e21d113	0.15802412
111	0xbb0b0eeb	-0.0021218609
112	0x3ddfccc4	0.10927728
113	0x3e38bf53	0.18041734
114	0x3eb26855	0.34845224
115	0xbc84f8f0	-0.016231984
116	0x3e4dc14f	0.20093273
117	0x3f06e11a	0.5268723
118	0x3e45fc62	0.19334558
119	0x3e98fbab	0.29879507
120	0x3dcf299b	0.101153575
121	0x3d295897	0.04134425
122	0xbc4e0f14	-0.012576837
123	0xbc2ed4f4	-0.010670889
124	0x3e87fa5e	0.26558203
125	0xbaf2cf81	-0.0018524976
126	0x3eb726bc	0.3577174
127	0xbc96deba	-0.018416751
128	0xbd5888ed	-0.052864958
129	0xbb996328	-0.00468101
130	0xbc0313cf	-0.008000328
131	0x3d8d9867	0.06913834
132	0x3d446710	0.04794985
133	0x3d441bce	0.04787808
134	0x3cbee8f8	0.023304448
135	0xbbe3efe4	-0.0069560874
136	0xbdef043e	-0.11670731
137	0x3c8c3b30	0.017118067
138	0x3f15c538	0.58504057
139	0xbe15b0d9	-0.14618243
140	0x3d6e39d8	0.058160633
141	0xbc8db770	-0.017299384
142	0x3e86ccd1	0.26328138
143	0x3e416afe	0.1888847
144	0x3e387752	0.18014267
145	0xbe1d0997	-0.1533569
146	0xbe49041a	-0.19630471
147	0xbd48b348	-0.0489991
148	0x3ea0ac8d	0.31381646
149	0xbe9b0671	-0.30278352
150	0xbeb12b20	-0.34603214
151	0xbea995ce	-0.33122104
152	0xbd24f3d8	-0.04027161
153	0x3ea24ebf	0.31700704
154	0xbea079c5	-0.31342903
155	0xbe987c6a	-0.2978242
156	0x3ee55c33	0.44796905
157	0x3dc1e29b	0.0946705
158	0xbdfb345d	-0.12265847
159	0x3d89fca9	0.06737644
160	0x3e15c3eb	0.14625518
161	0xbe4ff8d4	-0.20309764
162	0x3cbd947e	0.023142096
163	0xbe4e0e79	-0.20122708
164	0xbdddd286	-0.1083117
165	0xbd1044fa	-0.03522203
166	0xbfcb590f	-1.5886554
167	0x3ce94a14	0.028477706
168	0xbdeb92d0	-0.11502612
169	0xbd237ac4	-0.039912
170	0x3d0bea38	0.034158915
171	0xbe493c7b	-0.19651978
172	0xbf1171c5	-0.56814224
173	0x3e730e12	0.23735836
174	0x3e0d227d	0.13782687
175	0x3c79e53c	0.015252408
176	0x3c58dbe8	0.0132360235
177	0x3d5f2a08	0.054483443
178	0x3d22e9da	0.0397738
179	0x3c948cf3	0.018133616
180	0xbec98503	-0.39359292
181	0xbc33a21d	-0.010963944
182	0x3e5d6260	0.21619558
183	0x3e1f812c	0.15576619
184	0xbe005d9b	-0.12535708
185	0xbe7c8800	-0.24661255
186	0xbf217eda	-0.63084185
187	0x3e97f559	0.29679373
188	0x3e90d708	0.28289056
189	0x3d646e14	0.05576904
190	0x3dadbb1f	0.08482956
191	0xba75c06c	-0.00093746814
192	0x3c10a2ab	0.008827846
193	0xbc8f41ab	-0.017487368
194	0x3d675bd3	0.056484055
195	0xbec71d74	-0.38889658
196	0x3e9b8f94	0.3038298
197	0x3e440c1a	0.19145241
198	0x3eb03473	0.34415016
199	0xbe13641a	-0.14393654
200	0x3d4fb892	0.05071313
201	0x3e5a0a83	0.21293072
202	0x3de1ddcc	0.110286325
203	0xbe992e9d	-0.29918376
204	0xbd6e584e	-0.058189683
205	0xbeb57cd6	-0.35446805
206	0x3e0f197f	0.1397457
207	0x3dfbe3d2	0.12299313
208	0xbe9bb1b4	-0.30409014
209	0x3e935f23	0.2878352
210	0xbe6a5120	-0.22882509
211	0xbe34a94e	-0.1764271
212	0x3e046bbd	0.12931724
213	0x3dad24f8	0.08454317
214	0xbf54a1a1	-0.83059126
215	0xbf429904	-0.76014733
216	0xbc939e29	-0.018019753
217	0x3e195140	0.149724
218	0x3cf0a038	0.029373273
219	0xbc11f3ed	-0.008908254
220	0x3d2a87a3	0.04163326
221	0xba5cff5e	-0.00084303867
222	0x3e33d7ea	0.17562833
223	0x3ca0698c	0.019581579
224	0x3e3b523d	0.1829309
225	0x3ec7220c	0.38893163
226	0xbe1baa3f	-0.15201662
227	0xbc87919a	-0.01654892
228	0x3eaa7669	0.33293465
229	0x3f043177	0.5163798
230	0x3e000795	0.12502892
231	0x3e52a3fd	0.20570369
232	0x3d805e1e	0.062679514
233	0x3d760755	0.060065586
234	0xbcf48278	-0.029847369
235	0x3c28f344	0.010311905
236	0xbd3ad457	-0.04561266
237	0xbc2a52db	-0.010395731
238	0xbc8da329	-0.017289715
239	0x3e5942a2	0.21216825
240	0x3d50ed92	0.051007815
241	0x3f8c9acf	1.0984744
242	0xbe8aaa3e	-0.2708301
243	0x3d0f0996	0.03492125
244	0x3d14d8f3	0.03633971
245	0x3d77cb36	0.06049653
246	0xbe122953	-0.14273576
247	0xbbfa3a15	-0.0076363184
248	0xbba897f1	-0.005145066
249	0xbbb86bcf	-0.005628086
250	0x3a9046e4	0.0011007455
251	0x3b796600	0.0038055182
252	0xbe019210	-0.12653375
253	0x3e20f472	0.15718248
254	0x3d67f6d3	0.056631874
255	0x3d175915	0.03695019

network.0.bias f4 [32]
0	0x3d99c978	0.0750913
1	0xbda3b0be	-0.07992695
2	0x3de4b9de	0.11168264
3	0x3d0a6f16	0.033797346
4	0x3d23f7c1	0.0400312
5	0xbe226734	-0.15859681
6	0xbdf30da2	-0.11867835
7	0xbeac6b9c	-0.3367585
8	0xbe87e034	-0.2653824
9	0xbe9d1b3d	-0.30684844
10	0x00000000	0.0
11	0x3ecce94b	0.40021738
12	0xbe1ca356	-0.15296683
13	0xbe68aa83	-0.22721295
14	0xbe20a4fb	-0.15687935
15	0x3bfec19e	0.007774546
16	0xbdd0341d	-0.1016619
17	0x3e1ddd4a	0.15416446
18	0x3e582420	0.2110753
19	0xbd720bcd	-0.059093285
20	0xbd71501a	-0.05891428
21	0xbe082b9c	-0.13297886
22	0xbe057d5e	-0.13036105
23	0xbe96ec67	-0.29477236
24	0x3d81e3d4	0.06342283
25	0xbd3f445d	-0.046696056
26	0xbe6bed86	-0.23039827
27	0x3e533ae9	0.20627941
28	0x3c553430	0.013012931
29	0x3e0638b1	0.13107564
30	0xbe93ee39	-0.28892687
31	0xbe0f840a	-0.14015213

network.3.weight f4 [16, 32]
0	0x3e8ef57d	0.27921668
1	0x3e96749b	0.29385838
2	0xbf861ace	-1.047693
3	0xbf820f81	-1.0160981
4	0xbf3475ce	-0.70492256
5	0x3d4992cb	0.04921226
6	0x3e489777	0.19589029
7	0x3f0fcfbf	0.5617637
8	0xbe4d1bc5	-0.20030124
9	0xbf025f73	-0.50926894
10	0x3e43e45a	0.19130078
11	0xbd4abf29	-0.04949871
12	0x3e35073d	0.17678542
13	0xbd9e2d43	-0.07723477
14	0xbda169ea	-0.0788153
15	0xbf1dc938	-0.6163516
16	0xbde621d4	-0.11236921
17	0x3d683f3a	0.056700923
18	0x3cd93ee1	0.02651924
19	0xbc89eb26	-0.01683576
20	0xbfc0ffa6	-1.5078018
21	0xbf928525	-1.1446882
22	0x3d84623e	0.06464051
23	0xbd3706d8	-0.04468426
24	0xbd95e527	-0.07319098
25	0xc0458b8f	-3.086643
26	0x3b6a9908	0.003579678
27	0xbe7d2304	-0.24720389
28	0xbf29269b	-0.6607453
29	0xbf1040d4	-0.5634892
30	0xbdc19a44	-0.09453252
31	0xbca6a261	-0.0203411
32	0x3d23829f	0.03991949
33	0xbe3183c9	-0.17335428
34	0xbce6dafb	-0.02818059
35	0xbcc6124e	-0.02417865
36	0xbd82a7e7	-0.06379681
37	0xbd04a886	-0.03238728
38	0x3ee7b475	0.45254865
39	0xbe381b44	-0.17979151
40	0xbe10ef11	-0.14153697
41	0x3f419dbe	0.7563132
42	0xbbea0d00	-0.007142663
43	0xbed6a163	-0.41920003
44	0x3e394239	0.18091668
45	0xbe016c11	-0.1263888
46	0x3e921c10	0.28537035
47	0xbe506c99	-0.20353927
48	0xbdddcdc0	-0.10830259
49	0xbdfab148	-0.12240845
50	0xbd3b6178	-0.04574725
51	0x3db268b2	0.08711375
52	0xbda78c69	-0.08181078
53	0xbdd27b68	-0.10277444
54	0x3c91963d	0.017771835
55	0x3f37635c	0.71635985
56	0xbe7812ea	-0.24225965
57	0xbe086aea	-0.13322034
58	0x3cd93d7e	0.02651858
59	0xbcad8e0c	-0.021185897
60	0xbd722713	-0.059119295
61	0xbd4c2667	-0.04984131
62	0xbe84f10a	-0.25965148
63	0xbdd493ee	-0.10379778
64	0xbf06fef4	-0.5273278
65	0xbde29822	-0.11064173
66	0xbe91c800	-0.284729
67	0xbd97a61c	-0.0740473
68	0xbea43bdf	-0.32076928
69	0xbd11ad15	-0.035565455
70	0x3cf08548	0.029360428
71	0x3e4fdca0	0.20299006
72	0x3f17707f	0.5915603
73	0x3f6f82c9	0.9355894
74	0x3e5bc6ca	0.21462551
75	0xc07a73de	-3.913322
76	0x3e88232b	0.2658933
77	0xbd6b18ea	-0.057396807
78	0xbdf8a7d2	-0.12141384
79	0xbf5e4fe6	-0.86840665
80	0x3e67aaad	0.22623701
81	0xbea17c51	-0.31540158
82	0xbece33bc	-0.40273845
83	0xbf208bcc	-0.62713313
84	0xbd2b77b0	-0.04186219
85	0xbcb47719	-0.022029446
86	0x3e9884f2	0.2978893
87	0xbdbc4de6	-0.091945454
88	0xbf9ff65a	-1.2497056
89	0xbeeea6f1	-0.4661174
90	0x3f2f67cc	0.68517756
91	0xbdba00ba	-0.0908217
92	0xbe005194	-0.1253112
93	0x3e83e930	0.25763845
94	0x3d552d85	0.052045364
95	0x3dbcd32b	0.092199646
96	0xbe3dd6a4	-0.1853891
97	0xbd110714	-0.03540714
98	0xbed09661	-0.4073973
99	0xbdc9e3cd	-0.09857903
100	0xbe343db4	-0.17601663
101	0xbc76d6fb	-0.015065904
102	0x3d529ebf	0.051420923
103	0x3df36f9d	0.11886523
104	0x3eb88d0e	0.36045116
105	0x3f69cd95	0.9132932
106	0x3cb5bc40	0.022184491
107	0xbff84aa7	-1.9397782
108	0xbdefdd15	-0.1171209
109	0xbd3296a6	-0.0436007
110	0x3de4d307	0.11173063
111	0xbf04ba7b	-0.51847047
112	0xbc6b5609	-0.014363774
113	0xbe7dfee1	-0.2480426
114	0xbda5f343	-0.08103039
115	0x3ecc8f81	0.39953235
116	0xbd93db94	-0.072196156
117	0xbeaed962	-0.34150225
118	0xbdcb0883	-0.09913733
119	0xbcafebee	-0.021474805
120	0xbeba2f55	-0.36364236
121	0xbeab4b3c	-0.33455837
122	0x3ef1e62f	0.4724593
123	0xbe0e4274	-0.13892537
124	0xbe182896	-0.14859232
125	0xbf17daeb	-0.5931842
126	0x3e20f783	0.15719418
127	0x3c2400ba	0.010009939
128	0xbccebfba	-0.025237907
129	0x3e52910a	0.2056314
130	0xbdd9deba	-0.10638185
131	0xbe494fea	-0.19659391
132	0xbe60b32f	-0.21943353
133	0xbbcf50bc	-0.006326763
134	0x3daae7a2	0.08344962
135	0xbe837b51	-0.2568002
136	0xbecded85	-0.40220276
137	0x3edd8a03	0.43269357
138	0xbe5851d1	-0.2112496
139	0xbe2de2c8	-0.16981041
140	0x3dba791d	0.09105132
141	0xbe89d5b2	-0.2692085
142	0xbd85b397	-0.06528395
143	0xbefff464	-0.49991143
144	0xbd626162	-0.055268653
145	0xbe01f71a	-0.12691918
146	0xbca499fa	-0.020092953
147	0x3c9389b6	0.018010002
148	0xbc9dd2a2	-0.019265477
149	0xba11f7ec	-0.0005568254
150	0x3e6d6568	0.23183215
151	0xbd385a23	-0.045007836
152	0xbe50748c	-0.20356959
153	0xbfc59b5b	-1.5438036
154	0x3f35e838	0.7105746
155	0xbd9a53d1	-0.07535518
156	0xbd93d80c	-0.07218942
157	0xbe7a9205	-0.24469765
158	0x3f2b3b25	0.6688712
159	0xbd386076	-0.045013867
160	0x3e815c7d	0.25265875
161	0xbe0eaf09	-0.13933958
162	0xbe4f15f1	-0.20223214
163	0xbe871921	-0.2638636
164	0xbed61b54	-0.41817725
165	0x3e9d21d3	0.30689868
166	0xbdf16bee	-0.11788164
167	0x3d90c513	0.07068839
168	0x3cd5d629	0.026103096
169	0xbf6f264a	-0.934178
170	0x3cf9cc60	0.030492961
171	0xbc971d49	-0.018446581
172	0xbe159cd8	-0.14610612
173	0xbe63193a	-0.22177592
174	0x3d0ab25d	0.033861507
175	0xbf819582	-1.0123751
176	0x3cf242c8	0.02957286
177	0x3d9e7f07	0.07739072
178	0xbdcf3a21	-0.10118509
179	0xbbf96138	-0.0076104663
180	0xc0165cbb	-2.3494098
181	0xbf89f39c	-1.0777469
182	0xbe5e0540	-0.2168169
183	0xbb98a3d2	-0.004658201
184	0xbd746f2b	-0.05967633
185	0xbfa19efa	-1.2626641
186	0xbebbb1a7	-0.36658975
187	0xbf327f84	-0.69725823
188	0xbf0e2a9e	-0.5553378
189	0xbf26bca8	-0.65131617
190	0x3e6d7337	0.23188482
191	0x3d639eff	0.055571552
192	0x3c977fb9	0.01849352
193	0x3d2be907	0.04197028
194	0xbd09df38	-0.033660144
195	0xbce67d8e	-0.028136041
196	0xbd2af902	-0.04174138
197	0xbfc7e3a8	-1.561635
198	0xbe57b808	-0.21066296
199	0xbc234a74	-0.0099664815
200	0x3cdb87b8	0.026798114
201	0xc09e26bd	-4.942229
202	0xbeaa02ae	-0.3320517
203	0x3d8eae97	0.06966894
204	0x3e42c050	0.19018674
205	0xba2cb558	-0.00065883016
206	0xbea79f5a	-0.32738763
207	0xba5d2ab7	-0.0008436846
208	0x3e19032b	0.14942615
209	0xbd8adc5c	-0.067803115
210	0x3d9a0caf	0.075219505
211	0x3c0524f1	0.008126483
212	0x3f91adfa	1.1381218
213	0x3fab31ae	1.3374536
214	0xbebef2c0	-0.3729458
215	0x3da87480	0.082253456
216	0xbf3362c0	-0.70072556
217	0xbd068e1d	-0.032850374
218	0xbb9e5d26	-0.0048328815
219	0xbcef69e0	-0.02922529
220	0x3cc8e63d	0.024523849
221	0xbc7de0ef	-0.015495523
222	0x3aa27612	0.0012394807
223	0x3de61ad3	0.11235585
224	0xbd571f5c	-0.05252014
225	0xbdab0c75	-0.08351985
226	0xbe0b669f	-0.13613366
227	0xbeb3feca	-0.35155326
228	0xbea19486	-0.31558627
229	0x3dd62574	0.10456362
230	0xbe9d8819	-0.30767897
231	0x3e17e8b4	0.14834863
232	0x3eeb65db	0.45976147
233	0x3f872abf	1.055992
234	0x3c909360	0.017648399
235	0xbfc3590c	-1.526155
236	0x3e61f6d7	0.22066818
237	0xbe025438	-0.1272744
238	0xbf18b1aa	-0.59646094
239	0xbfa59893	-1.2937187
240	0x3b1ed0cb	0.0024233337
241	0xbf1d0c12	-0.6134654
242	0xbe9271b9	-0.28602389
243	0xbe3e0b24	-0.18558937
244	0xbc5197d0	-0.012792543
245	0xbf6d774f	-0.92760175
246	0x3e3f77bd	0.1869802
247	0xbd393abe	-0.045222037
248	0xbf540c3f	-0.82831186
249	0xbfcd3db0	-1.603445
250	0x3f0848ca	0.5323607
251	0xbdbee7fc	-0.09321591
252	0xbed36a00	-0.4129181
253	0xbe247ddf	-0.16063641
254	0xbdce3cf7	-0.10070222
255	0x3d8464d6	0.064645454

network.3.bias f4 [16]
0	0xbbe0f2c4	-0.0068648774
1	0xbd92e250	-0.07172072
2	0x3ce6a648	0.028155461
3	0x3cda4cd5	0.026647964
4	0x3c4085be	0.011750637
5	0x3d64b073	0.055832338
6	0xbe12d1a8	-0.1433779
7	0x3d470c05	0.048595447
8	0x3d7f3a64	0.062311545
9	0x3d62843e	0.055301897
10	0x3c933e70	0.017974108
11	0x3dc73614	0.097271115
12	0x3d83e335	0.06439821
13	0x3c3e5e75	0.0116192
14	0x3cb8c5d3	0.022555267
15	0x3c994003	0.018707281

network.6.weight f4 [1, 16]
0	0x3f431eba	0.7621876
1	0x3f24ac33	0.64325255
2	0x3e854d3b	0.26035485
3	0x3ec6821e	0.38771147
4	0x3f8033bd	1.0015789
5	0x3e817458	0.25284076
6	0xbfb717d4	-1.4304147
7	0x3ec6101a	0.3868416
8	0xbf2c7692	-0.67368424
9	0xbf01b08b	-0.5066001
10	0x3f121d10	0.57075596
11	0xbf1a9c8a	-0.6039511
12	0xbfb1e962	-1.3899348
13	0x3e15c440	0.14625645
14	0x3e44463d	0.19167419
15	0x3e3cc066	0.18432769
